model_cnn.pth (torch, 435608 bytes, 8 tensors)

conv1.weight f4 [6, 3, 5, 5]
0.121154375 0.2082431 0.03360295 0.10512946 0.11545039 0.13520138 0.19284964 0.05798184
0.13794611 -0.03684484 0.038137723 -8.475232e-06 -0.115816295 0.020664915 -0.013417377 0.0017317545
-0.15461685 -0.24665375 -0.15593815 0.011521821 -0.15105255 0.050549936 0.030359408 -0.09957239
-0.05319226 0.041108128 -0.078554794 -0.05991682 0.17424451 0.110427625 -0.024964344 -0.054686543
0.0016652425 0.11354028 -0.010279966 -0.028351743 -0.02547397 -0.06297609 -0.09596387 -0.17729461
-0.09357583 -0.09955078 -0.2263652 -0.19723617 -0.02616049 -0.020693162 0.062128156 0.058426693
0.2046953 0.09433872 -0.12765306 -0.037333824 0.04426305 0.06377727 0.024380554 -0.035211418
-0.049625494 0.17013429 -0.004082924 -0.092493005 -0.13598502 0.054679073 -0.0915185 0.043277193
-0.11797969 0.031665582 -0.10779078 -0.095138095 -0.1697547 -0.06495375 0.1301276 0.12660193
0.09108427 0.25293043 0.16374892 0.06378479 -0.12172547 -0.052308258 -0.008374593 0.027067577
-0.1274965 -0.117932096 0.001619189 -0.11070703 0.046108462 -0.110747874 0.019064203 -0.09449383
-0.18563673 0.008756676 -0.083867446 -0.11715535 -0.028183494 -0.07419789 -0.041704677 0.08755343
0.074814916 0.04857168 0.12461262 0.15921399 -0.074296795 0.022290263 -0.093385465 -0.007403421
-0.06074821 -0.050027184 -0.08503443 -0.024718639 0.021873225 -0.08932499 0.006393086 0.014980864
-0.027330546 -0.013930684 -0.18113582 -0.10000702 -0.10735158 -0.086747214 -0.046794366 -0.095763415
-0.103356116 -0.086094216 -0.04975057 -0.09037091 -0.08701555 0.04754626 0.1968712 0.15654323
-0.046490848 -0.058115628 0.20890203 0.2725287 0.12344714 0.07357938 -0.020261416 0.15377352
0.08507588 0.20348234 0.22960071 0.10042696 0.093317196 0.16005526 0.10280643 0.03789008
0.04085867 0.050258018 0.124677315 0.13299187 0.04374873 -0.060696878 -0.079604484 -0.039574336
0.1567902 -0.18470314 0.046960615 0.07067104 -0.29957438 0.056235805 -0.09532266 -0.07088918
-0.056582894 -0.10027432 -0.30591393 -0.27862862 -0.086455904 0.10459895 0.25935122 -0.046994396
0.09727147 -0.06517609 -0.0892657 0.044465706 -0.00027467843 0.057146136 0.06799675 -0.0600996
0.15781505 0.11189245 -0.07535201 0.09994978 0.03439868 -0.26654938 0.11922127 0.13879327
0.13358624 0.09505168 -0.08844202 -0.22386147 -0.12287538 0.00084817887 0.24272482 0.2802389
0.14836788 0.19261 0.11112731 -0.016302757 0.0644295 -0.037742954 -0.0310709 0.03264448
-0.106853426 0.051916532 0.08443778 -0.17245187 -0.04750687 0.06635544 -0.2847491 0.17138764
-0.042236086 0.005695983 0.15875499 -0.0062764804 -0.2806354 -0.24791276 0.06916992 0.18008666
0.104876645 -0.0026567164 0.09156634 0.04389309 -0.12706432 -0.07323722 0.028815335 -0.08108634
0.029680619 0.061102197 -0.05212425 -0.16661152 0.0013562697 -0.07751034 -0.09005227 -0.059528288
-0.027681267 0.032273393 -0.04117465 -0.19273214 -0.09341438 0.14126821 0.0888369 -0.021446114
0.025680974 -0.020281373 0.10174829 0.03829277 -0.024076167 -0.076988846 0.00019955763 -0.046031855
0.01252623 0.027091984 0.0464549 0.028956495 -0.023223333 0.11701664 0.12374901 -0.09066094
00000000: c91f f83d ae3d 553e 3fa3 093d 1d4e d73d
00000010: 4171 ec3d 3b72 0a3e 607a 453e 5e7e 6d3d
00000020: bf41 0d3e 9dea 16bd 4d36 1c3d d830 0eb7
00000030: 1831 edbd 7849 a93c 8fd4 5bbc 0afc e23a
00000040: e153 1ebe cd92 7cbe 40ae 1fbe 05c6 3c3c
00000050: 85ad 1abe 730d 4f3d 4bb4 f83c 9cec cbbd
00000060: 21e0 59bd ff60 283d 56e1 a0bd 576b 75bd
00000070: 276d 323e e127 e23d 0682 ccbc fffe 5fbd
00000080: 4444 da3a ce87 e83d 4d6d 28bc ea41 e8bc
00000090: caae d0bc 9cf9 80bd b588 c4bd b88c 35be
000000a0: afa4 bfbd 48e1 cbbd 47cc 67be 47f8 49be
000000b0: 864e d6bc b584 a9bc 187a 7e3d d450 6f3d
000000c0: a59b 513e a934 c13d 7cb7 02be 5aeb 18bd
000000d0: 2c4d 353d a89d 823d bab9 c73c d939 10bd
000000e0: 1a44 4bbd af37 2e3e 0dca 85bb f96c bdbd
000000f0: a83f 0bbe 2af7 5f3d 0d6e bbbd 6d43 313d
00000100: 569f f1bd c5b3 013d 6ac1 dcbd c3d7 c2bd
00000110: 2dd4 2dbe 7906 85bd 2b40 053e f0a3 013e
00000120: 648a ba3d 1980 813e ccad 273e 9aa1 823d
00000130: 344b f9bd 2f41 56bd 9735 09bc d3bc dd3c
00000140: 718e 02be 6286 f1bd f83a d43a 5eba e2bd
00000150: 3adc 3c3d c8cf e2bd 882c 9c3c fb85 c1bd
00000160: 8e17 3ebe 2978 0f3c b2c2 abbd 25ef efbd
00000170: 12e1 e6bc 10f5 97bd 86d2 2abd 364f b33d
00000180: 9038 993d 19f3 463d e734 ff3d fe08 233e
00000190: eb28 98bd 129a b63c e140 bfbd 6698 f2bb
000001a0: 1dd3 78bd 4ee9 4cbd 8826 aebd be7e cabc
000001b0: 7a2f b33c 05f0 b6bd 187d d13b 4c72 753c
000001c0: 4fe4 dfbc 863d 64bc ab7b 39be 7bd0 ccbd
000001d0: 25db dbbd 86a8 b1bd 73ab 3fbd 9c1f c4bd
000001e0: 5fac d3bd 2a52 b0bd 41c7 4bbd 6214 b9bd
000001f0: 3535 b2bd debf 423d 9b98 493e de4c 203e
00000200: 306d 3ebd a70a 6ebd 6aea 553e e288 8b3e
00000210: dbd1 fc3d c9b0 963d 45fb a5bc ce76 1d3e
00000220: 433c ae3d ad5d 503e 731c 6b3e a6ac cd3d
00000230: 161d bf3d 87e5 233e 2d8c d23d a132 1b3d
00000240: 6c5b 273d 5adb 4d3d d256 ff3d 052f 083e
00000250: de31 333d 4a9d 78bd ad07 a3bd b318 22bd
00000260: 9c8d 203e d222 3dbe c659 403d fabb 903d
00000270: d061 99be 8457 663d 8738 c3bd 592e 91bd
00000280: 77c3 67bd 9f5c cdbd c0a0 9cbe 69a8 8ebe
00000290: cb0f b1bd f937 d63d afc9 843e 327d 40bd
000002a0: 4436 c73d 0b7b 85bd efd0 b6bd ac21 363d
000002b0: b702 90b9 1112 6a3d e141 8b3d 002b 76bd
000002c0: 459a 213e de27 e53d 2852 9abd 78b2 cc3d
000002d0: a1e5 0c3d 2979 88be 482a f43d d31f 0e3e
000002e0: d5ca 083e 75aa c23d 1721 b5bd f13b 65be
000002f0: 16a6 fbbd 5258 5e3a db8c 783e 797b 8f3e
00000300: c0ed 173e 8e3b 453e b796 e33d 5c8d 85bc
00000310: 9df3 833d 5b98 1abd 6688 febc 38b6 053d
00000320: f8d5 dabd 6ea6 543d b7ed ac3d 3997 30be
00000330: 9096 42bd 5ce5 873d a2ca 91be 3e80 2f3e
00000340: bfff 2cbd 5ea5 ba3b ab90 223e efaa cdbb
00000350: 71af 8fbe d8dc 7dbe f6a8 8d3d a368 383e
00000360: 91c9 d63d 4e1c 2ebb 2287 bb3d 3ec9 333d
00000370: 261d 02be 65fd 95bd 230e ec3c 9810 a6bd
00000380: c524 f33c 4c46 7a3d 3d80 55bd 369c 2abe
00000390: dcc4 b13a bebd 9ebd 536d b8bd efd3 73bd
000003a0: d3c3 e2bc 1b31 043d c0a6 28bd 935b 45be
000003b0: 0a50 bfbd 9da8 103e 1ff0 b53d c3af afbc
000003c0: e860 d23c 1f25 a6bc 6861 d03d e1d8 1c3d
000003d0: 623b c5bc 54ac 9dbd 5840 5139 e68b 3cbd
000003e0: d13a 4d3c 02f0 dd3c 7e47 3e3d 2c36 ed3c
000003f0: dc3e bebc 6ca6 ef3d 1f70 fd3d 71ac b9bd

conv1.bias f4 [6]
-0.029842809 0.029892227 0.1295268 -0.05006667 0.058040824 0.041039135
00000000: e878 f4bc 8be0 f43c aca2 043e b512 4dbd
00000010: 37bc 6d3d a718 283d

conv2.weight f4 [16, 6, 5, 5]
-0.020949705 0.16336465 0.1436748 -0.14794433 -0.13670379 0.1478964 0.08696181 -0.31291494
-0.21868755 0.019169448 -0.1314327 -0.16913952 -0.07112351 0.0686138 -0.011880371 -0.22917862
-0.12568769 0.14829807 -0.019486336 -0.037696965 -0.074539274 -0.12645556 -0.05139695 0.0207151
0.034859784 -0.0767333 -0.012494036 -0.09050021 -0.17646845 -0.178935 -0.092936054 -0.07864614
-0.042914994 -0.052578427 0.06708826 -0.13397339 -0.06115467 -0.06298669 0.04478768 0.12403927
-0.11547869 -0.098781586 0.01326881 -0.00032080174 0.051814955 -0.17631091 -0.070719406 0.06974264
0.10572488 0.121506244 -0.10723067 0.14662455 0.059939213 -0.1161529 -0.2915693 0.11103263
0.12570718 -0.17398243 -0.26651588 -0.23917086 0.18489845 -0.052690767 -0.17054589 -0.2736144
-0.15759914 -0.016363047 0.06000933 -0.010489516 -0.07581794 -0.10348495 0.003360427 -0.027701557
0.1369723 0.1022947 -0.014994155 0.07566051 -0.04949944 0.021606097 0.06856837 0.016001647
-0.0948859 0.09120358 0.14324546 0.03576877 -0.10663401 -0.0014571291 0.023999134 0.069718204
-0.067445494 0.031985167 0.08013295 0.055466644 -0.009530441 0.09824579 0.090937905 0.057648327
-0.08400536 -0.050702482 -0.062199697 0.013803442 0.15109885 -0.07491084 -0.12077012 -0.1566138
-0.14534295 0.07876149 -0.103414945 -0.16458705 0.00017879071 0.023054909 -0.075606674 -0.16726537
-0.066164106 -0.07209645 -8.799388e-05 0.016053353 0.015655119 -0.097161695 -0.090191215 0.11179658
0.061721206 0.077343695 0.008231288 0.012366255 -0.036245745 -0.15365386 -0.027388446 0.1700131
0.25502732 0.28414375 0.0823633 0.07460589 0.029609157 0.17236948 0.2703084 0.071380205
0.07118752 0.109302044 0.20590855 0.15023309 -0.093747586 -0.028318118 0.05012907 -0.051347222
0.046085816 0.020357497 0.0700514 -0.14890338 -0.1348435 -0.18135771 0.19882788 -0.058570046
-0.15541722 -0.074318066 0.010713407 0.20163044 0.011565585 -0.10345443 -0.10141522 0.16485712
0.027674261 0.056702983 -0.08369192 -0.1444228 0.14391652 -0.28836846 0.1387833 0.17926928
-0.0051514506 -0.040753104 -0.3044086 -0.09153835 0.22518836 0.36195433 0.29116917 0.069380745
0.1296097 0.031042423 0.07083768 0.05636936 -0.07732248 0.12284066 0.06597728 0.040426593
0.01852498 -0.16994004 -0.014022246 0.023381166 0.10015804 0.18604875 -0.049675137 -0.20925237
-0.14536703 0.021695644 0.14637937 0.3471715 0.00372938 -0.226356 -0.3463819 -0.2591769
-0.111840874 0.0057902946 0.059756413 -0.05377798 -0.07681914 -0.05576096 -0.13628665 0.00061749556
0.00892442 -0.17226624 0.25252402 -0.14321606 -0.26473778 -0.07213887 0.021013089 0.36967808
0.2511848 0.013777253 -0.10841448 0.080379546 0.2405865 0.24054751 0.20108634 0.10561724
-0.1140501 0.037725717 0.044655398 -0.003239485 -0.07540458 0.08607817 -0.077958524 0.0938429
-0.048278745 -0.009223207 -0.121199906 -0.18180676 0.07474221 0.12105225 -0.015460136 -0.121727474
-0.2856148 -0.27904093 0.022446372 0.102485225 0.043685123 -0.033718184 -0.32985044 -0.2919894
-0.10173045 0.05527429 0.15337634 -0.06382411 -0.062148374 -0.035854258 0.04530756 0.05436863
00000000: b79e abbc 1049 273e 7d1f 133e b87e 17be
00000010: 14fc 0bbe 2772 173e 0919 b23d 6336 a0be
00000020: a1ef 5fbe 3f09 9d3c 4b96 06be e932 2dbe
00000030: 34a9 91bd 6485 8c3d e3a5 42bc cdad 6abe
00000040: 46b4 00be 73db 173e cfa1 9fbc 2268 1abd
00000050: 0ca8 98bd 917d 01be 9c85 52bd b7b2 a93c
00000060: 22c9 0e3d 5926 9dbd c9b3 4cbc 2d58 b9bd
00000070: 25b4 34be bd3a 37be 4255 bebd 3a11 a1bd
00000080: a2c7 2fbd 7a5c 57bd 9265 893d 5230 09be
00000090: 527d 7abd 2aff 80bd 4973 373d 4d08 fe3d
000000a0: 1780 ecbd 004e cabd 6c65 593c 4831 a8b9
000000b0: eb3b 543d d98a 34be 56d5 90bd 3bd5 8e3d
000000c0: 4986 d83d 44d8 f83d c19b dbbd bf24 163e
000000d0: d282 753d 92e1 edbd 9248 95be 1365 e33d
000000e0: 62b9 003e 7328 32be c574 88be 35e9 74be
000000f0: 0556 3d3e 46d2 57bd 95a3 2ebe 3017 8cbe
00000100: ab61 21be cc0b 86bc 58cc 753d 38dc 2bbc
00000110: 7046 9bbd ebef d3bd 9c3a 5c3b 60ee e2bc
00000120: 7742 0c3e e27f d13d 0baa 75bc e6f3 9a3d
00000130: edbf 4abd 45ff b03c 936d 8c3d e315 833c
00000140: 8a53 c2bd f1c8 ba3d f0ae 123e 4682 123d
00000150: ef62 dabd 24fd beba d599 c43c 6bc8 8e3d
00000160: dd20 8abd e102 033d be1c a43d fe30 633d
00000170: 9125 1cbc 1735 c93d a73d ba3d a720 6c3d
00000180: 010b acbd 68ad 4fbd 1cc5 7ebd d527 623c
00000190: a8b9 1a3e db6a 99bd 5356 f7bd 5e5f 20be
000001a0: c8d4 14be b44d a13d 37cb d3bd 8289 28be
000001b0: c479 3b39 a6dd bc3c acd7 9abd 9d47 2bbe
000001c0: 0c81 87bd 4ea7 93bd 5b89 b8b8 5282 833c
000001d0: 2a3f 803c b6fc c6bd 2cb6 b8bd 9bf5 e43d
000001e0: 60cf 7c3d 5f66 9e3d 86dc 063c d59b 4a3c
000001f0: 6b76 14bd 7057 1dbe bc5d e0bc ea17 2e3e
00000200: f192 823e 4a7b 913e 17ae a83d f9ca 983d
00000210: e78e f23c a081 303e dd65 8a3e c92f 923d
00000220: c3ca 913d c0d9 df3d b1d9 523e b4d6 193e
00000230: bcfe bfbd 66fb e7bc 2454 4d3d 7751 52bd
00000240: 7bc4 3c3d c4c4 a63c 1c77 8f3d 217a 18be
00000250: 6a14 0abe d6b5 39be 8999 4b3e 25e7 6fbd
00000260: b125 1fbe 1234 98bd 4987 2f3c 3678 4e3e
00000270: 947d 3d3c ebdf d3bd c8b2 cfbd 4ed0 283e
00000280: 22b5 e23c 6341 683d ab66 abbd 92e3 13be
00000290: da5e 133e 08a5 93be 361d 0e3e 5e92 373e
000002a0: 80cd a8bb baec 26bd 72db 9bbe 7578 bbbd
000002b0: c797 663e 1452 b93e 2014 953e 7e17 8e3d
000002c0: 68b8 043e ae4c fe3c 5813 913d 8fe3 663d
000002d0: 405b 9ebd e293 fb3d 191f 873d 5b96 253d
000002e0: b3c1 973c c304 2ebe 90bd 65bc dc89 bf3c
000002f0: a91f cd3d 9083 3e3e 2878 4bbd 4146 56be
00000300: 18db 14be 10bb b13c 79e4 153e 76c0 b13e
00000310: 9d68 743b dec9 67be f858 b1be d6b2 84be
00000320: d40c e5bd 83bc bd3b 24c3 743d 4d46 5cbd
00000330: 5a53 9dbd 9b65 64bd ba8e 0bbe 6ddf 213a
00000340: bb37 123c 9066 30be d44a 813e 3ba7 12be
00000350: b68b 87be 8bbd 93bd a423 ac3c 7246 bd3e
00000360: 4b9b 803e fdb9 613c 6908 debd 089e a43d
00000370: 4f5c 763e 1652 763e 94e9 4d3e da4d d83d
00000380: 1993 e9bd 4886 1a3d 94e8 363d 8a4d 54bb
00000390: b76d 9abd c049 b03d b8a8 9fbd b530 c03d
000003a0: efbf 45bd ef1c 17bc a837 f8bd 8d2b 3abe
000003b0: 7212 993d 3eea f73d 834c 7dbc 414c f9bd
000003c0: 1a3c 92be 74de 8ebe 74e1 b73c c6e3 d13d
000003d0: 2cef 323d 141c 0abd 28e2 a8be a27f 95be
000003e0: 0e58 d0bd 4b67 623d b00e 1d3e 37b6 82bd
000003f0: 4b8f 7ebd eadb 12bd 6c94 393d a4b1 5e3d

conv2.bias f4 [16]
0.28826538 -0.038511954 -0.39888114 0.1341856 0.21925367 0.3949617 -0.05085819 -0.074135005
0.04042593 0.19434246 0.0021086866 0.090466276 0.1478561 0.09882644 -0.07726828 -0.3336773
00000000: 8597 933e b6be 1dbd 263a ccbe f367 093e
00000010: 0984 603e 6c38 ca3e ad50 50bd 18d4 97bd
00000020: a995 253d b601 473e e431 0a3b 6246 b93d
00000030: 9767 173e 8465 ca3d d53e 9ebd c0d7 aabe

fc1.weight f4 [256, 400]
0.012493501 -0.0195129 -0.0047766976 0.028317332 0.0066068964 -0.006279377 0.033505637 -0.022223504
-0.01829353 0.0152268745 0.003162747 0.015054567 -0.03629711 -0.03906687 -0.062169544 0.017850598
0.0047289077 -0.030138828 -0.05925061 0.027481558 -0.03590925 -0.032984655 -0.03971236 -0.06837005
-0.046862185 -0.039890446 -0.012002453 -0.054637317 -0.03331896 -0.062169958 0.012497116 -0.057527665
0.024674194 -0.013859544 -0.02378995 -0.06401339 -0.03512125 -0.06032163 -0.0064355177 0.010549306
0.011756833 -0.016416086 0.020112224 0.0071704616 -0.008639502 0.01666824 -0.07669899 0.016349666
-0.044713873 -0.026886603 -0.0507626 -0.0459191 0.0141931595 -0.042441677 0.0009906974 0.017801011
-0.035933465 0.0028742577 0.0143472245 -0.0077631623 -0.017172927 -0.0353228 0.013315606 -0.06922841
0.010103092 -0.0039087515 -0.058440212 -0.051168833 0.009612136 -0.058887005 -0.0065022795 0.036727745
-0.0076834336 -0.07356675 -0.04723855 0.0038480104 -0.002849285 0.015323425 -0.031213317 -0.017690469
0.019363059 -0.03232199 -0.012772308 -0.00073804223 0.045475513 -0.068904094 0.023826921 0.025348706
-0.01806016 0.028043931 -0.04988822 -0.031208782 -0.0028140694 -0.042331934 0.00051799853 0.00177989
-0.006234961 0.0013317049 -0.027726693 0.024204109 0.020809103 -0.040494066 -0.029076105 -0.019779334
-0.0012664078 0.009080717 -0.02354798 -0.040471148 -0.06545309 -0.002690606 -0.035159703 -0.0717251
0.0171858 -0.027354695 -0.056321606 0.038190834 -0.020463446 -0.054185715 -0.013706812 -0.053999837
-0.06404656 0.022405125 -0.02557607 -0.051267322 0.012140557 -0.06428973 -0.048096426 -0.03760459
-0.01364547 -0.04626973 -0.022840468 -0.05352377 0.012760759 -0.012924236 0.01987878 -0.063416004
-0.01578529 -0.039691113 0.023102133 -0.042966984 0.019280458 0.020892175 -0.025394531 -0.0031525313
0.008476684 -0.02941218 0.033974465 -0.014729245 -0.024537705 -0.06742097 -0.037579484 -0.011692476
-0.026171988 -0.029759128 -0.027592909 -0.047807682 0.004308055 0.013658327 0.018762607 0.008082735
-0.008488105 -0.026332662 -0.0136400545 -0.061326213 -0.019597037 -0.026942823 0.014241487 -0.06865027
-0.048272043 0.0037065565 0.01386547 0.021708015 -0.06375656 0.023944277 -0.009011412 0.04502925
0.0046470524 -0.00055626035 0.038029112 0.023854816 -0.018701458 0.00481835 -0.0190283 -0.025769997
0.031691927 -0.042146772 -0.02511443 -0.026596373 0.029296035 0.024584943 0.046464622 -0.025168581
-0.018172145 -0.031276166 -0.022816433 0.034597274 0.035855073 -0.015223414 -0.011134672 0.044282418
-0.0011169612 -0.02080037 -0.04752432 -0.013821698 -0.045774147 0.008519626 -0.047410607 0.04192659
0.015671918 0.006772002 0.006968546 0.029672956 -0.01119073 0.00329031 -0.039789002 -0.007080716
0.031683754 0.032057445 -0.006259888 0.013427508 0.02713796 -0.046851527 -0.027892977 -0.05933464
0.037504144 -0.047905613 -0.012610765 -0.02798447 -0.0034655407 -0.040803064 0.031829305 0.019580184
0.018483512 -0.07164256 -0.023309946 -0.013859093 -0.016859319 0.025075002 -0.043881148 0.04066806
-0.024401937 -0.017460205 -0.06566866 -0.04393686 0.016630104 0.021338737 -0.017842146 -0.04842832
-0.029689783 0.019597083 -0.03422253 -0.03230952 -0.032236744 0.023895135 -0.035122886 0.018919233
00000000: 8bb1 4c3c 84d9 9fbc d885 9cbb c0f9 e73c
00000010: aa7e d83b 3bc3 cdbb 353d 093d 110e b6bc
00000020: 50dc 95bc 247a 793c 1746 4f3b 6ea7 763c
00000030: 47ac 14bd 9504 20bd 7ea5 7ebd 6b3b 923c
00000040: f4f4 9a3b b4e5 f6bc c5b0 72bd 0121 e13c
00000050: 9415 13bd eb1a 07bd 6da9 22bd 9905 8cbd
00000060: 90f2 3fbd 2a64 23bd f0a5 44bc 61cb 5fbd
00000070: 7679 08bd eda5 7ebd b4c0 4c3c 21a2 6bbd
00000080: 8921 ca3c 2413 63bc 24e3 c2bc 7419 83bd
00000090: 4ddb 0fbd d013 77bd 09e1 d2bb ffd6 2c3c
000000a0: bb9f 403c 077b 86bc 64c2 a43c 31f6 ea3b
000000b0: b38c 0dbc d58b 883c 5c14 9dbd bcef 853c
000000c0: e525 37bd 4b41 dcbc 72ec 4fbd ab15 3cbd
000000d0: 6d8a 683c 53d7 2dbd 4ada 813a 6dd3 913c
000000e0: f82e 13bd 0b5e 3c3b 9f10 6b3c 2062 febb
000000f0: 3dae 8cbc a4ae 10bd b329 5a3c a0c7 8dbd
00000100: 7087 253c fc14 80bb 015f 6fbd 6996 51bd
00000110: 387c 1d3c 8033 71bd 1311 d5bb d56f 163d
00000120: 50c5 fbbb 2aaa 96bd 367d 41bd e72e 7c3b
00000130: 12bb 3abb 1a0f 7b3c 12b3 ffbc 9aeb 90bc
00000140: 479f 9e3c 1064 04bd f142 51bc 2d79 41ba
00000150: 8844 3a3d 971d 8dbd ad30 c33c 17a8 cf3c
00000160: e7f2 93bc 63bc e53c 9757 4cbd 8fa9 ffbc
00000170: 406c 38bb 4064 2dbd 4bca 073a 334b e93a
00000180: a54e ccbb 9a8c ae3a 1723 e3bc b247 c63c
00000190: da77 aa3c 1bdd 25bd 0331 eebc 4508 a2bc
000001a0: 98fd a5ba 4ac7 143c b1e7 c0bc 13c5 25bd
000001b0: 450c 86bd e154 30bb 9f03 10bd 9ce4 92bd
000001c0: 3cc9 8c3c f416 e0bc 7cb1 66bd fe6d 1c3d
000001d0: f5a2 a7bc d7f1 5dbd 8992 60bc ef2e 5dbd
000001e0: d82a 83bd f48a b73c e884 d1bc affd 51bd
000001f0: 30e9 463c 55aa 83bd c200 45bd 4507 1abd
00000200: 4091 5fbc 5485 3dbd ef1b bbbc be3b 5bbd
00000210: 8112 513c 2dc0 53bc d3d8 a23c 40e0 81bd
00000220: 2750 81bc 2693 22bd af40 bd3c 26fe 2fbd
00000230: 0df2 9d3c 1126 ab3c 3108 d0bc b39a 4ebb
00000240: cae1 0a3c d0f1 f0bc cf28 0b3d ee52 71bc
00000250: 4c03 c9bc 0114 8abd f2ec 19bd cd91 3fbc
00000260: a366 d6bc 6ac9 f3bc 860a e2bc fdd1 43bd
00000270: 962a 8d3b 2dc7 5f3c 0ab4 993c 736d 043c
00000280: b111 0bbc 98b7 d7bc 897a 5fbc 3231 7bbd
00000290: f789 a0bc 32b7 dcbc 2055 693c 8398 8cbd
000002a0: e8b8 45bd b3e9 723b ff2b 633c 02d5 b13c
000002b0: cd92 82bd ca26 c43c 9aa4 13bc 9770 383d
000002c0: 4d46 983b 00d2 11ba 6ac4 1b3d 2d6b c33c
000002d0: cd33 99bc 40e3 9d3b 3de1 9bbc 9a1b d3bc
000002e0: 65cf 013d 18a2 2cbd c7bc cdbc a3e0 d9bc
000002f0: 3dfe ef3c 5d66 c93c b051 3e3d 572e cebc
00000300: c0dd 94bc 701b 00bd 87e9 babc dfb5 0d3d
00000310: c5dc 123d a06b 79bc 336e 36bc 7b61 353d
00000320: 0067 92ba 8a65 aabc dda8 42bd 6774 62bc
00000330: ac7d 3bbd e795 0b3c a031 42bd 37bb 2b3d
00000340: 6562 803c ace7 dd3b 6758 e43b b314 f33c
00000350: 5359 37bc 3ea2 573b cbf9 22bd 5a05 e8bb
00000360: d3c6 013d ab4e 033d bf1f cdbb 0dff 5b3c
00000370: 6d50 de3c 63e7 3fbd d07f e4bc e108 73bd
00000380: f29d 193d ad38 44bd 629d 4ebc b03f e5bc
00000390: 201e 63bb 1d21 27bd 725f 023d 9f66 a03c
000003a0: bc6a 973c 56b9 92bd 80f4 bebc 4011 63bc
000003b0: 8e1c 8abc 176a cd3c b8bc 33bd 8d93 263d
000003c0: 92e6 c7bc b408 8fbc 4a7d 86bd 23f7 33bd
000003d0: db3b 883c 93ce ae3c b129 92bc c65c 46bd
000003e0: fd37 f3bc 108a a03c ec2c 0cbd fd56 04bd
000003f0: ad0a 04bd bbbf c33c 04dd 0fbd 82fc 9a3c

fc1.bias f4 [256]
-0.00974292 -0.017221952 -0.031871304 0.0219681 0.1919524 -0.08031401 0.2030053 -0.058309067
0.23705646 -0.0033292912 -0.029526932 -0.18982294 0.008713186 -0.01043772 0.12260646 -0.05713926
0.10719137 -0.020571401 0.260247 -0.12956713 0.2445665 0.023216527 0.15885276 0.07086151
-0.011645995 -0.27728984 0.10136439 0.18284404 0.06831658 -0.2095597 0.2394598 0.03207945
-0.068265356 0.20861405 0.16394357 -0.045207385 -0.05653726 -0.022479478 -0.026476325 -0.26550895
0.44204646 0.044370215 -0.033635557 0.04968152 0.18874879 -0.04084804 0.37972805 -0.054095946
0.3478052 0.16026041 0.079508774 0.0014432024 0.3242493 0.37184972 -0.04607388 0.14533983
0.24061482 -0.04799082 -0.05660063 0.0178378 -0.011863292 0.09111373 0.19729786 0.3641789
0.02917524 0.0795054 0.16842979 0.074797176 0.28235066 0.3396901 0.15760021 -0.028648047
0.05511474 -0.039503932 -0.024401113 0.04341449 0.26076195 0.24195695 0.41921467 -0.0340835
-0.03496608 0.51216877 0.3083579 -0.032424614 0.037021846 -0.0006018318 -0.102732114 -0.15635543
0.36500645 0.031860333 -0.032936722 0.22639865 0.13428679 0.13710481 -0.0015230181 0.35415667
-0.04132829 -0.13067727 -0.12624152 -0.033386182 0.2494955 -0.19020396 0.30047244 -0.008126053
-0.003170275 0.028211044 0.03151633 -0.022019863 -0.0149024315 0.15341257 -0.052252457 -0.058650635
0.34975424 0.1973842 0.020848662 0.035282414 -0.027195374 -0.032854453 -0.06089503 0.06739146
-0.038247924 0.4092141 0.030214828 -0.015653584 -0.006323132 0.025561653 0.1851141 -0.16653772
-0.091272615 0.021805614 -0.082931034 -0.14588876 -0.023194155 0.41263407 0.5515522 -0.0044008405
-0.08907159 0.17525649 0.1870875 -0.06251018 0.28510275 -0.04546134 -0.02832177 0.106098644
0.27470466 0.37247074 0.40127555 -0.047261745 -0.23925658 -0.029471442 -0.06323023 -0.18177071
0.026486438 -0.0046213777 0.20471431 -0.04759472 -0.20905349 -0.047890205 -0.21336016 -0.0474528
0.001528429 -0.037400946 -0.10706815 -0.006481832 0.034876056 -0.08168138 -0.026559267 0.25253743
-0.1765642 -0.059873383 -0.12893008 -0.058896378 -0.016725404 0.6332481 0.24188127 -0.031830672
0.0980479 -0.07017581 0.5677604 0.15747166 -0.008073175 -0.044230003 0.00036900453 0.1882388
-0.0011357318 -0.04276295 0.11285968 0.37489676 0.0037593434 -0.3552583 -0.020564364 0.3431072
0.28507197 0.28628987 -0.16653018 -0.10954753 -0.1730119 0.37525687 -0.23405954 0.19912092
-0.05430831 0.20889343 0.18809545 -0.13938618 -0.17446671 0.2658887 -0.32682732 -0.026125666
-0.028754588 0.21116444 -0.031154944 0.2257969 0.30386844 -0.16790715 -0.04847504 -0.25817195
0.016433815 0.22301862 0.4054763 0.2410063 0.18116249 -0.051897988 0.058766685 0.39002147
0.112972066 0.5245221 -0.011765304 0.31021777 0.22650209 -0.0781005 -0.029802077 0.29427323
0.028637655 -0.21075395 0.2705902 0.17175192 0.33184108 0.17202611 -0.00079693215 -0.057351526
-0.05452098 -0.12443363 0.22267583 0.047353107 0.061201844 -0.21230419 0.25527355 -0.06431213
-0.1425573 0.18810661 -0.11862611 -0.0054498916 0.10611269 0.0024623247 0.24456626 -0.06425484
00000000: c5a0 1fbc 0d15 8dbc 7c8b 02bd 72f6 b33c
00000010: 2c8f 443e ac7b a4bd 9fe0 4f3e 7dd5 6ebd
00000020: eebe 723e 3d30 5abb 77e2 f1bc f260 42be
00000030: c0c1 0e3c f902 2bbc 1819 fb3d db0a 6abd
00000040: 2687 db3d 5b85 a8bc 183f 853e 3fad 04be
00000050: a46f 7a3e 9630 be3c 4caa 223e d71f 913d
00000060: d8ce 3ebc eff8 8dbe 2298 cf3d 783b 3b3e
00000070: 90e9 8b3d d196 56be f334 753e be65 033d
00000080: b5ce 8bbd ec9e 553e d3e0 273e 612b 39bd
00000090: 9d93 67bd e226 b8bc e1e4 d8bc caf0 87be
000000a0: ea53 e23e 8bbd 353d 70c5 09bd d97e 4b3d
000000b0: 5d47 413e 4650 27bd b76b c23e b693 5dbd
000000c0: 8613 b23e 4e1b 243e 7fd5 a23d d629 bd3a
000000d0: 0104 a63e 1663 be3e f7b7 3cbd f7d3 143e
000000e0: bb63 763e 0692 44bd 10d6 67bd 9420 923c
000000f0: 415e 42bc d699 ba3d 7308 4a3e a875 ba3e
00000100: ea00 ef3c bad3 a23d dc78 2c3e 432f 993d
00000110: 4490 903e dceb ad3e f361 213e 4faf eabc
00000120: febf 613d e0ce 21bd d8e4 c7bc 64d3 313d
00000130: 9782 853e 90c3 773e 4ea3 d63e 249b 0bbd
00000140: 9838 0fbd 7e1d 033f 16e1 9d3e accf 04bd
00000150: 38a4 173d 40c4 1dba 3765 d2bd a31b 20be
00000160: 20e2 ba3e fb7f 023d a8e8 06bd 0cd5 673e
00000170: 7a82 093e 3465 0c3e 02a0 c7ba 0654 b53e
00000180: da47 29bd 43d0 05be 7545 01be f3bf 08bd
00000190: c07b 7f3e d4c4 42be 86d7 993e 2323 05bc
000001a0: 63c4 4fbb d91a e73c 4417 013d 0063 b4bc
000001b0: 5429 74bc 2f18 1d3e ac06 56bd a63b 70bd
000001c0: fd12 b33e 151f 4a3e d0ca aa3c 4b84 103d
000001d0: d5c8 debc 6492 06bd 116d 79bd 8904 8a3d
000001e0: dba9 1cbd 8384 d13e 1685 f73c f23b 80bc
000001f0: 4732 cfbb ac66 d13c 8d8e 3d3e dd88 2abe
00000200: 23ed babd b0a1 b23c bfd7 a9bd dd63 15be
00000210: ab01 bebc c644 d33e 8632 0d3f ed34 90bb
00000220: 2a6b b6bd 7076 333e de93 3f3e 5605 80bd
00000230: fdf8 913e ac35 3abd 0e03 e8bc 3f4a d93d
00000240: 17a6 8c3e 7cb4 be3e fd73 cd3e 8895 41bd
00000250: adff 74be 186e f1bc da7e 81bd 1a22 3abe
00000260: 16fa d83c ed6e 97bb a1a0 513e aef2 42bd
00000270: 1e12 56be 8528 44bd 167b 5abe de5d 42bd
00000280: 9155 c83a bc31 19bd 8c46 dbbd 8c65 d4bb
00000290: 32da 0e3d 9148 a7bd d292 d9bc 964c 813e
000002a0: 3fcd 34be cb3d 75bd 3f06 04be 543d 71bd
000002b0: b703 89bc 8c1c 223f b9af 773e e160 02bd
000002c0: 56cd c83d 56b8 8fbd bf58 113f 4040 213e
000002d0: 5a45 04bc 852a 35bd f376 c139 acc1 403e
000002e0: d6dc 94ba 3428 2fbd fa22 e73d 78f2 bf3e
000002f0: 515f 763b 6ae4 b5be 9976 a8bc bfab af3e
00000300: f4f4 913e 9694 923e e386 2abe 755a e0bd
00000310: 082a 31be ab21 c03e 4ead 6fbe 5be6 4b3e
00000320: 6472 5ebd 29e8 553e 189c 403e 40bb 0ebe
00000330: 67a7 32be 9022 883e e955 a7be 7e05 d6bc
00000340: be8e ebbc 7e3b 583e a738 ffbc 4d37 673e
00000350: a594 9b3e daef 2bbe c38d 46bd 1d2f 84be
00000360: 35a0 863c fe5e 643e 979a cf3e 5bca 763e
00000370: a982 393e fc92 54bd 56b5 703d e5b0 c73e
00000380: e65d e73d 1547 063f 43c3 40bc ddd4 9e3e
00000390: 2af0 673e 28f3 9fbd 7c23 f4bc fbaa 963e
000003a0: 8499 ea3c e2cf 57be cc8a 8a3e bcdf 2f3e
000003b0: 13e7 a93e 9d27 303e 36e9 50ba 6fe9 6abd
000003c0: 6451 5fbd 0fd7 febd 2205 643e 55f5 413d
000003d0: c9ae 7a3d 4566 59be 37b3 823e 14b6 83bd
000003e0: 8afa 11be 059f 403e 3ff2 f2bd 0195 b2bb
000003f0: 9c51 d93d f45e 213b 946f 7a3e 0b98 83bd

fc2.weight f4 [10, 256]
-0.08611662 -0.08672459 -0.0078661665 -0.06333055 -0.079206586 0.038544655 0.031678855 0.050023712
-0.31575885 -0.043375935 0.06943132 0.07036634 0.035037536 0.026440864 -0.254331 0.03740509
-0.11888947 0.017808659 -0.15879336 -0.115830876 0.20246556 -0.016592642 -0.19158891 -0.17647167
-0.018615542 0.055391442 -0.23248713 -0.117532186 0.28256717 0.08931629 -0.36384347 -0.10471019
-0.048629742 -0.11995492 -0.2850597 -0.034389783 0.017969303 -0.07039278 0.01666924 0.03309185
-0.039011147 -0.2058792 0.055185515 0.1029593 -0.22392333 -0.0116387205 -0.032632846 -0.0073552583
-0.1754053 0.104091674 0.10043087 0.10382566 -0.22116534 -0.18352486 -0.008726508 0.25566438
-0.10930018 -0.05556571 -0.025059214 -0.004484021 0.03926961 0.1601263 0.11311661 -0.07340518
0.0743024 0.120833926 -0.36685866 -0.041916415 0.044916205 0.04279401 0.04093201 0.046322837
-0.106587976 0.0114678815 0.023209918 -0.051764566 0.13801154 -0.22621831 0.15367518 -0.032602478
0.01290607 0.11828171 -0.13505884 -0.019388653 0.0010925875 0.010147226 -0.017983591 0.10720453
0.10798176 0.107316196 0.0074184467 0.1262052 -0.37506646 -0.16470988 -0.0024995361 0.05767003
0.010847725 -0.06584834 -0.023179488 0.12826502 -0.24007255 0.046296462 0.15578923 0.031558562
-0.041343004 0.010857136 0.094267115 -0.21740347 0.13501596 0.10219411 -0.083595686 0.025323706
0.0960191 0.17972389 -0.035426658 0.017991139 -0.115224466 0.033975955 -0.065797426 0.04961056
0.18897326 0.13316232 0.02905869 -0.055539824 -0.07107561 -0.20883696 -0.09852379 -0.053025547
0.15083729 0.122428074 0.052114937 0.16146557 -0.013016998 -0.20788996 0.1849984 0.031347107
-0.07568724 -0.005261344 -0.1918158 -0.033927064 -0.16312048 -0.09454725 0.033442553 0.0072463755
0.020856865 0.07218317 -0.057953134 -0.034156043 0.124276154 0.012365407 0.0046109552 0.04831586
-0.2657972 0.034161113 0.09092632 -0.00028522845 -0.0024224368 0.045951225 0.1480989 -0.04995836
-0.0634053 0.010035787 -0.059610654 -0.012127558 -0.25031114 -0.00041391628 -0.044801768 0.18223546
0.2601894 -0.046153694 -0.1599005 -0.061812386 0.101914205 0.16222487 0.0746527 -0.02727738
-0.21572125 -0.03636232 -0.28153506 -0.21138775 0.0063874424 -0.0008382654 0.060673583 -0.17021737
0.039875228 -0.04721059 -0.10939756 -0.06743384 0.071164094 0.0695098 -0.026957754 -0.20492733
0.067635536 0.14212085 0.07778011 -0.017736932 -0.12464265 0.11680948 0.30336627 0.0895691
0.04374597 -0.14743848 0.103212066 0.008527324 0.12615776 -0.04871616 0.13920932 0.038999274
0.030040553 0.06400206 0.14726819 0.06783014 -0.032896597 0.11714931 -0.036141068 0.033104666
-0.00013945917 0.08200137 -0.07287565 -0.010970809 -0.21239558 0.024109049 -0.13720371 0.108421594
-0.078981966 -0.26104164 -0.08430017 0.008017645 0.06392691 -0.04545535 -0.041298784 -0.24530452
-0.03295392 -0.084239274 0.06853768 0.0405319 -0.012048916 0.020810446 -0.06678229 -0.01961556
0.028560922 0.043885108 -0.09542404 0.0037531918 0.14940946 -0.101693116 0.07967911 -0.11511451
0.07260269 0.1511584 0.08976407 -0.0022731244 0.16434538 -0.060889866 -0.02696948 -0.03508236
00000000: e95d b0bd a99c b1bd 18e1 00bc 73b3 81bd
00000010: 1037 a2bd 00e1 1d3d b0c1 013d aae5 4c3d
00000020: 25ab a1be f7aa 31bd 0232 8e3d 3a1c 903d
00000030: 8583 0f3d 839a d83c ac37 82be 1436 193d
00000040: 537c f3bd 77e3 913c ba9a 22be bd38 edbd
00000050: 2253 4f3e 4bed 87bc e22f 44be fdb4 34be
00000060: 9f7f 98bc 23e2 623d 1b11 6ebe b7b4 f0bd
00000070: a5ac 903e 76eb b63d b149 babe 4c72 d6bd
00000080: fb2f 47bd edaa f5bd 58f3 91be 4ddc 0cbd
00000090: 5c34 933c 172a 90bd ee8d 883c 528b 073d
000000a0: 27ca 1fbd ffd1 52be 350a 623d 53dc d23d
000000b0: 284c 65be 55b0 3ebc 05aa 05bd 6104 f1bb
000000c0: 729d 33be 042e d53d b3ae cd3d 8ca2 d43d
000000d0: 2b79 62be f1ed 3bbe a1f9 0ebc 71e6 823e
000000e0: c6d8 dfbd df98 63bd fb48 cdbc b2ee 92bb
000000f0: 2cd9 203d 26f8 233e aea9 e73d 7455 96bd
00000100: db2b 983d c777 f73d e6d4 bbbe 8cb0 2bbd
00000110: 0efa 373d c648 2f3d 53a8 273d 04bd 3d3d
00000120: cc4a dabd c8e3 3b3c ba22 be3c 1507 54bd
00000130: e652 0d3e c6a5 67be 075d 1d3e 2d8a 05bd
00000140: fb73 533c ae3d f23d dd4c 0abe f4d4 9ebc
00000150: 2735 8f3a 8d40 263c 5352 93bc 0c8e db3d
00000160: 8a25 dd3d 98c8 db3d 7116 f33b f03b 013e
00000170: b608 c0be b5a9 28be 42cf 23bb 6937 6c3d
00000180: a8ba 313c 7fdb 86bd e9e2 bdbc e857 033e
00000190: 94d5 75be 5ca1 3d3d 3687 1f3e 8d43 013d
000001a0: 4857 29bd 21e2 313c 1e0f c13d 049f 5ebe
000001b0: a041 0a3e 254b d13d 3734 abbd a973 cf3c
000001c0: a9a5 c43d 8a09 383e 8b1b 11bd 2762 933c
000001d0: cefa ebbd 5f2a 0b3d cdc0 86bd 7134 4b3d
000001e0: 3582 413e b45b 083e 7d0c ee3c ba7d 63bd
000001f0: 1790 91bd 5bd9 55be d7c6 c9bd 5131 59bd
00000200: 1775 1a3e 92bb fa3d 7976 553d 3b57 253e
00000210: 3f45 55bc 1be1 54be 3870 3d3e d365 003d
00000220: e901 9bbd 5a67 acbb 5c6b 44be 1bf7 0abd
00000230: 0e09 27be fda1 c1bd 0ffb 083d 0173 ed3b
00000240: 04dc aa3c c5d4 933d 4460 6dbd 35e7 0bbd
00000250: 7f84 fe3d 4798 4a3c 7f17 973b dae6 453d
00000260: 9216 88be 86ec 0b3d 9437 ba3d b78a 95b9
00000270: bfc1 1ebb 5a37 3c3d 3da7 173e 23a1 4cbd
00000280: a3da 81bd 246d 243c 4d2a 74bd aab2 46bc
00000290: c828 80be e702 d9b9 0f82 37bd ef9b 3a3e
000002a0: 8c37 853e a80b 3dbd f5bc 23be fc2e 7dbd
000002b0: 65b8 d03d 471e 263e 84e3 983d d074 dfbc
000002c0: 08e6 5cbe a8f0 14bd 5d25 90be 0876 58be
000002d0: c04d d13b 0abf 5bba dd84 783d 764d 2ebe
000002e0: 3554 233d e45f 41bd d40b e0bd c11a 8abd
000002f0: 7bbe 913d 275b 8e3d 82d6 dcbc 78d8 51be
00000300: 8084 8a3d 2188 113e 2e4b 9f3d 0b4d 91bc
00000310: a544 ffbd cf39 ef3d d352 9b3e 0170 b73d
00000320: f92e 333d 1dfa 16be d960 d33d 30b6 0b3c
00000330: 802f 013e 998a 47bd e38c 0e3e b4bd 1f3d
00000340: 9b17 f63c 8313 833d 79cd 163e 87ea 8a3d
00000350: 95be 06bd faeb ef3d a808 14bd c298 073d
00000360: c93b 12b9 56f0 a73d d43f 95bd e8be 33bc
00000370: 3a7e 59be 5780 c53c 217f 0cbe 240c de3d
00000380: 4cc1 a1bd 40a7 85be 91a5 acbd 715c 033c
00000390: 1dec 823d 642f 3abd ea28 29bd 1c31 7bbe
000003a0: b1fa 06bd a485 acbd 7c5d 8c3d c704 263d
000003b0: d168 45bc ab7a aa3c 27c5 88bd d0b0 a0bc
000003c0: 98f8 e93c dfc0 333d ae6d c3bd 1cf8 753b
000003d0: cbfe 183e 7b44 d0bd cd2e a33d 28c1 ebbd
000003e0: b8b0 943d 45c9 1a3e 3ad6 b73d b3f8 14bb
000003f0: 284a 283e a767 79bd 19ef dcbc 85b2 0fbd

fc2.bias f4 [10]
-0.4499097 -0.18392625 -0.14771624 0.3102924 0.30053303 -0.0738001 0.0667787 -0.18472934
0.3712001 0.012502642
00000000: 905a e6be 2a57 3cbe ed42 17be a5de 9e3e
00000010: 77df 993e 8224 97bd 45c3 883d b029 3dbe
00000020: f10d be3e e2d7 4c3c
